data.pth (torch, 6847 bytes, 6 tensors)

l1.weight f4 [8, 99]
000000 0f b9 d4 3e ff e3 73 3e 1a aa 93 3c f7 96 6d be
       0.41547439 0.23817442 0.018025447 -0.2320212
000010 39 91 81 3e 3e dd a8 3e d6 56 91 be dd 76 9b 3e
       0.2530611 0.32981294 -0.28386563 0.30364123
000020 11 2d 1b 3f c9 b7 62 3e 4c 0b 04 bd a1 5b b1 3e
       0.6061564 0.22140421 -0.032237336 0.3464022
000030 c0 9f 8e 3e c3 6a 9c 3e 24 fa 2c 3e 1c 06 a6 be
       0.27856255 0.30550203 0.16892296 -0.32426536
000040 44 41 3c 3e 71 50 40 3e 11 0e 0a 3f b7 1c 46 be
       0.18384272 0.18780686 0.53927714 -0.19346891
000050 1b d3 44 be 9f 50 40 be e9 16 82 be 09 8d 07 3e
       -0.19221155 -0.18780755 -0.25408104 0.13237394
000060 2a 81 bc 3d cb 3d e0 bd da 2d 95 3c 18 3e a8 3d
       0.092043236 -0.10949286 0.01821034 0.082149684
000070 59 6a 08 3f 46 27 8b 3e ac 7f 2b 3e 92 eb b1 3e
       0.53287274 0.271784 0.16747922 0.34750038
000080 98 b6 18 3b d8 af 0c be 8b 99 96 be 89 cc 70 be
       0.0023302194 -0.13738954 -0.2941402 -0.23515524
000090 c5 5a b4 3d f2 bc a7 3e 88 45 86 be 34 d4 30 3e
       0.088063754 0.3276134 -0.26224923 0.17268449
0000a0 74 cf 17 3f 5b 30 d1 bd b3 80 fb 3e d5 1c 4e 3e
       0.59300923 -0.10214301 0.49121627 0.20128186
0000b0 d9 be 5a 3e 83 06 3c be f3 0e 01 3c dc bb ba 3e
       0.21361865 -0.18361859 0.007877099 0.3647145
0000c0 68 8f 83 bd 69 38 14 be 18 d4 c1 bd 92 e2 96 be
       -0.06423837 -0.14474644 -0.09464282 -0.29469734
0000d0 c4 1a f4 3d 25 72 5c be 9a cf 46 3e a3 19 86 3d
       0.11919168 -0.21527918 0.19415131 0.065478586
0000e0 41 03 10 bd 5f 0f 5e be ac 86 50 bc b7 bd 1b 3d
       -0.035159353 -0.21685551 -0.012727421 0.038022723
0000f0 df a9 b1 3e 42 9b a4 3e 7f f1 1b 3e ff 5c eb bd
       0.34699914 0.32149702 0.15228842 -0.11492347
000100 72 ae 3e 3f b3 9d b8 be 46 61 a6 be 67 0a 13 be
       0.7448493 -0.36057815 -0.3249609 -0.14359437
000110 4f 01 7c 3d 8c cf 11 bd 80 0c ff bd 03 4d 0f 3e
       0.061524685 -0.035598323 -0.12453556 0.13994221
000120 37 8d f6 bd 1d 97 6c 3e e7 30 46 be b1 24 49 3c
       -0.12038653 0.2310452 -0.19354592 0.012276814
000130 21 50 6f 3d c2 d8 02 3e 58 f3 02 3e 1e 73 47 3e
       0.058426026 0.12777999 0.12788141 0.19477507
000140 f9 0d 6b be 12 c9 1b be e4 6d ca 3e 94 c1 fc 3d
       -0.22954549 -0.15213421 0.39536965 0.123416096
000150 68 f0 89 3c 82 36 89 3d a8 42 2d 3e 72 31 53 3e
       0.016838267 0.0669985 0.16919959 0.2062433
000160 4b 13 62 be 0e 4d 2c 3e 98 ff ac 3d fb 4c f1 3a
       -0.22077672 0.16826269 0.08447188 0.0018409783
000170 6e 6c 1b 3f 37 a3 3f 3d 39 ab 36 be 48 ae 22 bd
       0.60712326 0.046786513 -0.17838754 -0.03971699
000180 33 7a 01 3d 71 44 a8 3e ce 99 22 3f 18 46 84 3d
       0.03161068 0.32864717 0.6351594 0.06458682
000190 09 6e 37 3d 1a 92 af 3c 9d 26 03 be a6 20 b0 3d
       0.044782672 0.021431971 -0.12807699 0.08599977
0001a0 76 95 93 3e dd 3d 1e be 34 03 74 3e d0 10 b6 3e
       0.28824967 -0.15453286 0.23829347 0.35559702
0001b0 82 79 6c 3e d9 1f b3 be ae 41 92 3e f1 ec 8f bd
       0.23093227 -0.34985235 0.28565735 -0.07027615
0001c0 50 5b b2 3d e3 cd d1 3c ee bc 46 3e af f3 c6 3e
       0.08708823 0.02561087 0.19408008 0.3885779
0001d0 83 48 60 bd b0 72 e1 3d f0 94 8d be 71 c7 f7 3d
       -0.054756653 0.11008203 -0.27652693 0.12098587
0001e0 c1 be 8b be 70 4d f1 bd 06 a5 d7 3e 16 d5 6f 3e
       -0.2729397 -0.11782348 0.4211809 0.2342113
0001f0 74 2a 0b 3d 7d 2d 27 3e fb eb 54 3e 1d 4b e4 3e
       0.033976033 0.16325946 0.20793144 0.44588557
000200 e8 ad 36 be 1e 97 60 be 2b d4 28 be da 75 28 be
       -0.17839777 -0.21932647 -0.16487186 -0.16451207
000210 b2 be c4 be d6 09 d4 be 5a 39 f8 be 51 16 8a 3e
       -0.3842674 -0.41413754 -0.48481256 0.2697015
000220 a2 22 c1 3e ac 42 8a 3e 91 b7 0f 3e 40 88 52 3e
       0.37721735 0.27003992 0.14034869 0.20559788
000230 99 88 39 be 7b d1 47 3e 97 bd fb bd 05 f9 2e 3e
       -0.18118514 0.19513504 -0.12292021 0.17087181
000240 c1 0f 13 3d b1 2e 47 3e 14 4d a7 3e b8 c7 60 be
       0.035903696 0.19451405 0.32675993 -0.21951187
000250 02 c5 7d 3e bf c0 52 be 51 24 23 be 9e 50 35 3d
       0.24782184 -0.2058134 -0.15931822 0.044266336
000260 62 71 b5 3e 58 c4 74 3d 14 9e 9b 3d 0c 74 2c 3e
       0.35438067 0.05975756 0.075985104 0.16841143
000270 f4 26 f0 3e 9a 5c 14 3d 31 a1 fa be 51 3e f6 3e
       0.4690472 0.036221124 -0.48951104 0.4809442
000280 76 c4 b2 3e ef ba 06 3e 51 67 9d be 2f 10 05 3f
       0.34915513 0.13157247 -0.30742887 0.5197782
000290 b7 c8 b1 be 9b 70 d1 be 2c 30 9a be 65 9a 26 3f
       -0.34723446 -0.40906224 -0.30114877 0.6507934
0002a0 19 8e 6b 3e 10 65 1d be 94 62 3b 3e 29 22 16 3f
       0.23003425 -0.15370584 0.18299323 0.58645874
0002b0 89 f5 9c 3e 58 be f7 bd d9 d9 40 bd bc 9c a7 3d
       0.30656078 -0.12096852 -0.047082756 0.081841916
0002c0 a2 10 2a be 16 23 f1 bc 53 7b da 3e 58 ba f5 3e
       -0.16607907 -0.029435676 0.42672214 0.47993731
0002d0 e1 dc 97 be f7 b9 52 3e 0a e4 83 3e 56 81 8f bd
       -0.29660705 0.20578752 0.25759917 -0.07007091
0002e0 92 70 04 be 47 cf ee 3e ff b5 54 3d f3 e3 33 be
       -0.12933567 0.46642515 0.051931378 -0.17567424
0002f0 7a 4f 96 3e 52 be 00 be 61 04 f0 be a5 e3 e4 3e
       0.2935751 -0.12572601 -0.4687834 0.4470493
000300 60 1a 9b 3e e6 8e 60 be 0b 1e ab 3c e2 2d 8a 3e
       0.3029356 -0.21929511 0.020888349 0.2698813
000310 ca 05 8f 3e b0 ed 27 3f c6 bf 10 bc 02 41 27 3e
       0.27934104 0.6559706 -0.008834785 0.16333392
000320 75 64 e2 3e f8 25 4e bd 89 4b 1d bd d5 65 7a 3e
       0.44217268 -0.05032918 -0.038402114 0.24452908
000330 d0 44 ce bc a9 b8 88 3e 04 d4 e7 bc cb 91 f3 bd
       -0.025179297 0.26703385 -0.02829934 -0.11893042
000340 d4 cb b8 be a6 4e c1 bd c5 79 9c 3e 73 fb 9e bd
       -0.3609301 -0.09438829 0.30561653 -0.07762804
000350 12 43 8a 3e 90 af cb 3d 6c 3f 34 3e c6 4e 21 3f
       0.27004296 0.09945595 0.17602319 0.63010824
000360 0e 7d 2f 3d 15 5b a9 bd a3 b2 61 3e 7c d4 2a be
       0.04284387 -0.08269326 0.22040801 -0.16682619
000370 7a e0 13 be b7 38 a4 3c c0 dd fd 3d 66 a7 e6 3d
       -0.144411 0.020046575 0.12395811 0.112623975
000380 fb 6b 9e 3e a4 68 12 be 95 11 ec 3d b2 c6 21 be
       0.30941758 -0.1429773 0.11526791 -0.15798452
000390 13 fa c5 bd 0f ed d3 3d a2 f6 ae bc 41 28 2a be
       -0.096668385 0.1034795 -0.021357838 -0.16616918
0003a0 34 f5 92 be 02 e8 6f be 5e 5e 4c 3e ff 5e ff 3d
       -0.287027 -0.23428348 0.19957873 0.12469291
0003b0 04 f2 47 3c 78 00 f9 bc a7 46 56 be 62 b7 b8 3b
       0.012203697 -0.030395731 -0.20925389 0.0056370953
0003c0 26 a8 3b 3d a5 ac 1f 3f ad f7 f1 3d f3 42 46 3e
       0.045814656 0.6237281 0.118148185 0.19361477
0003d0 18 ac 72 3e 08 dc a4 3e 38 f0 14 bd c6 c2 e7 3e
       0.23698461 0.3219912 -0.036361903 0.45265788
0003e0 6d 5f 03 be 6d 1a 8f 3d cd c5 09 3f eb cc ba 3e
       -0.12829371 0.06987462 0.53817445 0.36484465
0003f0 bc 8f 49 3e 67 0f 27 3e 47 21 08 3f f4 38 eb 3e
       0.19683737 0.1631447 0.5317578 0.4594189

l1.bias f4 [8]
000000 f4 b5 fc 3e a7 1a 84 3e b6 54 64 3e cb 0d 8b 3e
       0.4935757 0.25801584 0.2229794 0.2715896
000010 75 f9 08 3f 73 30 32 3f c3 55 e1 3e 82 1f 4c 3f
       0.5350564 0.6960518 0.44010743 0.7973558

l2.weight f4 [8, 8]
000000 7b 2b b4 3d d5 c5 ed bd 7c f4 24 bd 76 17 85 be
       0.08797356 -0.11609999 -0.04027222 -0.25994462
000010 4e af 0e 3d 20 41 22 be d4 25 16 bb 65 49 7e 3e
       0.034835152 -0.15845156 -0.002291073 0.24832685
000020 26 dc 3e 3f 76 db 5c 3f 1f 96 08 3f 8c 41 d1 bc
       0.7455467 0.8627237 0.53354067 -0.02554395
000030 81 31 2a bf e5 fa ea be c4 72 5f 3e 51 7a 91 bc
       -0.66481787 -0.45894542 0.21821123 -0.01775852
000040 ff 64 29 bb 34 d0 3e bf 89 eb 9a 3e b4 e8 39 bf
       -0.0025847552 -0.7453644 0.30257824 -0.726207
000050 e9 5e d8 be c7 6e 8d 3f 34 7c df 3e ac d7 58 bf
       -0.4225991 1.1049432 0.43649447 -0.8470409
000060 9f 3c 4f be e7 f7 5c be 26 19 63 be 2a 6a f1 3e
       -0.20237969 -0.21578942 -0.22177562 0.4715131
000070 56 cb 59 3f d2 96 15 3e 2e 20 6d 3f 0f 89 8e 3f
       0.8507589 0.14608315 0.9262723 1.1135577
000080 e9 48 01 bd 1a e3 55 be ea f7 47 3f e6 96 00 3f
       -0.031563673 -0.20887414 0.7811266 0.5023025
000090 0b c0 48 3f 9f 39 61 3f 4d 93 fd be 4a 15 18 3f
       0.78418034 0.8797855 -0.49526444 0.59407485
0000a0 fc 5f 34 3f d9 dc ce 3e e7 8d 23 bf 2a 4b 9e be
       0.7045896 0.40402868 -0.638884 -0.3091672
0000b0 25 79 f0 3e 44 1d 63 3c 7c 5a d2 be 82 32 ae 3f
       0.46967426 0.013861958 -0.4108466 1.3609164
0000c0 bf cb 82 bf 8b a0 00 be 50 14 20 be ef 93 0f bc
       -1.0218428 -0.12561242 -0.15632749 -0.008763297
0000d0 fb f1 05 3f 7d 80 d8 3e 39 70 64 3f ed 9d f3 be
       0.5232236 0.4228553 0.8923374 -0.47581425
0000e0 21 25 1e bf b6 f6 74 3f d6 3d 71 3f 99 da 46 3f
       -0.61775404 0.9568895 0.9423498 0.77677304
0000f0 e4 51 99 3e 29 3a 86 be c0 9d 3c 3f 84 37 60 be
       0.2994529 -0.26216248 0.7367821 -0.21896178

l2.bias f4 [8]
000000 59 ec 96 be 7a e9 be 3e 1e d9 0a 3f e0 62 36 3e
       -0.29477194 0.37287503 0.54237545 0.17811155
000010 99 ca ce 3d f0 39 dc 3e ff d7 2b 3e 8f 55 39 be
       0.10097236 0.43012953 0.16781615 -0.18099044

l3.weight f4 [6, 8]
000000 3c 09 a1 be fb bc 61 bf 62 6a 62 bf 92 02 d3 bc
       -0.31452358 -0.88178986 -0.8844358 -0.025758062
000010 5b 38 98 3e 55 f8 8c bf eb 3c 38 3e 88 2f ac 3e
       0.29730496 -1.1013285 0.17991988 0.33630013
000020 d0 5b 95 be 0c 74 91 bf c3 c3 4b bf c1 27 29 3f
       -0.2917161 -1.136354 -0.79595584 0.66076285
000030 73 f8 e4 3e 4a ee 2c 3f 65 4e 2a bf 17 6c 93 bf
       0.44720802 0.675511 -0.6652587 -1.1517361
000040 d4 19 70 be ee 77 22 3f 32 94 32 bf 63 f1 90 bf
       -0.23447353 0.6346425 -0.6975738 -1.1323665
000050 d7 38 87 bf fd 4b 61 3f ab fb 6a be 81 bc 87 bf
       -1.0564221 0.88006574 -0.22947566 -1.0604402
000060 7c 22 33 3d d3 db 36 bf 7b 00 30 3f 2e b5 87 3e
       0.04373406 -0.71429175 0.68750733 0.26505417
000070 bf 7a 83 bf b0 6a 55 bf b4 2f 3b 3f ae 87 29 be
       -1.0271834 -0.8336592 0.73119664 -0.16555664
000080 ee 91 1d 3e ae 67 9d 3e 30 15 da be 44 55 70 bd
       0.15387699 0.30743164 -0.4259429 -0.058675066
000090 e2 35 93 bf 3e 24 4e bf a9 a2 3f bd 7e c4 01 3f
       -1.1500819 -0.8052405 -0.046785984 0.5069045
0000a0 b8 f7 f0 bd 4a b5 00 bf 02 80 48 3f 43 b1 96 bf
       -0.117659986 -0.50276625 0.78320324 -1.1772846
0000b0 83 0f 3f 3f e9 4a 87 bf ad 7e 0c bf ea a0 20 bf
       0.74633044 -1.0569736 -0.5488079 -0.62745535

l3.bias f4 [6]
000000 c9 34 17 bf 9e c4 bc 3e 23 a3 ab 3e 27 93 89 3c
       -0.5906492 0.36868757 0.335229 0.0167938
000010 c4 6c 6e be 03 f2 72 3e
       -0.23283678 0.23725133
